D:\software\anaconda\envs\nucleus\python.exe H:\USSeg\ussegcodes\train.py 
Loading data...
train
train
val
val
Create model...
使用transunet模型
<================== Parameters ==================>
model: TransUNet(
  (encoder): Encoder(
    (conv1): Conv2d(1, 64, kernel_size=(7, 7), stride=(2, 2), padding=(3, 3), bias=False)
    (norm1): BatchNorm2d(64, eps=1e-05, momentum=0.1, affine=True, track_running_stats=True)
    (relu): ReLU(inplace=True)
    (encoder1): EncoderBottleneck(
      (downsample): Sequential(
        (0): Conv2d(64, 128, kernel_size=(1, 1), stride=(2, 2), bias=False)
        (1): BatchNorm2d(128, eps=1e-05, momentum=0.1, affine=True, track_running_stats=True)
      )
      (conv1): Conv2d(64, 128, kernel_size=(1, 1), stride=(1, 1), bias=False)
      (norm1): BatchNorm2d(128, eps=1e-05, momentum=0.1, affine=True, track_running_stats=True)
      (conv2): Conv2d(128, 128, kernel_size=(3, 3), stride=(2, 2), padding=(1, 1), bias=False)
      (norm2): BatchNorm2d(128, eps=1e-05, momentum=0.1, affine=True, track_running_stats=True)
      (conv3): Conv2d(128, 128, kernel_size=(1, 1), stride=(1, 1), bias=False)
      (norm3): BatchNorm2d(128, eps=1e-05, momentum=0.1, affine=True, track_running_stats=True)
      (relu): ReLU(inplace=True)
    )
    (encoder2): EncoderBottleneck(
      (downsample): Sequential(
        (0): Conv2d(128, 256, kernel_size=(1, 1), stride=(2, 2), bias=False)
        (1): BatchNorm2d(256, eps=1e-05, momentum=0.1, affine=True, track_running_stats=True)
      )
      (conv1): Conv2d(128, 256, kernel_size=(1, 1), stride=(1, 1), bias=False)
      (norm1): BatchNorm2d(256, eps=1e-05, momentum=0.1, affine=True, track_running_stats=True)
      (conv2): Conv2d(256, 256, kernel_size=(3, 3), stride=(2, 2), padding=(1, 1), bias=False)
      (norm2): BatchNorm2d(256, eps=1e-05, momentum=0.1, affine=True, track_running_stats=True)
      (conv3): Conv2d(256, 256, kernel_size=(1, 1), stride=(1, 1), bias=False)
      (norm3): BatchNorm2d(256, eps=1e-05, momentum=0.1, affine=True, track_running_stats=True)
      (relu): ReLU(inplace=True)
    )
    (encoder3): EncoderBottleneck(
      (downsample): Sequential(
        (0): Conv2d(256, 512, kernel_size=(1, 1), stride=(2, 2), bias=False)
        (1): BatchNorm2d(512, eps=1e-05, momentum=0.1, affine=True, track_running_stats=True)
      )
      (conv1): Conv2d(256, 512, kernel_size=(1, 1), stride=(1, 1), bias=False)
      (norm1): BatchNorm2d(512, eps=1e-05, momentum=0.1, affine=True, track_running_stats=True)
      (conv2): Conv2d(512, 512, kernel_size=(3, 3), stride=(2, 2), padding=(1, 1), bias=False)
      (norm2): BatchNorm2d(512, eps=1e-05, momentum=0.1, affine=True, track_running_stats=True)
      (conv3): Conv2d(512, 512, kernel_size=(1, 1), stride=(1, 1), bias=False)
      (norm3): BatchNorm2d(512, eps=1e-05, momentum=0.1, affine=True, track_running_stats=True)
      (relu): ReLU(inplace=True)
    )
    (vit): ViT(
      (projection): Linear(in_features=512, out_features=512, bias=True)
      (dropout): Dropout(p=0.1, inplace=False)
      (transformer): TransformerEncoder(
        (layer_blocks): ModuleList(
          (0): TransformerEncoderBlock(
            (multi_head_attention): MultiHeadAttention(
              (qkv_layer): Linear(in_features=512, out_features=1536, bias=False)
              (out_attention): Linear(in_features=512, out_features=512, bias=False)
            )
            (mlp): MLP(
              (mlp_layers): Sequential(
                (0): Linear(in_features=512, out_features=512, bias=True)
                (1): GELU()
                (2): Dropout(p=0.1, inplace=False)
                (3): Linear(in_features=512, out_features=512, bias=True)
                (4): Dropout(p=0.1, inplace=False)
              )
            )
            (layer_norm1): LayerNorm((512,), eps=1e-05, elementwise_affine=True)
            (layer_norm2): LayerNorm((512,), eps=1e-05, elementwise_affine=True)
            (dropout): Dropout(p=0.1, inplace=False)
          )
          (1): TransformerEncoderBlock(
            (multi_head_attention): MultiHeadAttention(
              (qkv_layer): Linear(in_features=512, out_features=1536, bias=False)
              (out_attention): Linear(in_features=512, out_features=512, bias=False)
            )
            (mlp): MLP(
              (mlp_layers): Sequential(
                (0): Linear(in_features=512, out_features=512, bias=True)
                (1): GELU()
                (2): Dropout(p=0.1, inplace=False)
                (3): Linear(in_features=512, out_features=512, bias=True)
                (4): Dropout(p=0.1, inplace=False)
              )
            )
            (layer_norm1): LayerNorm((512,), eps=1e-05, elementwise_affine=True)
            (layer_norm2): LayerNorm((512,), eps=1e-05, elementwise_affine=True)
            (dropout): Dropout(p=0.1, inplace=False)
          )
          (2): TransformerEncoderBlock(
            (multi_head_attention): MultiHeadAttention(
              (qkv_layer): Linear(in_features=512, out_features=1536, bias=False)
              (out_attention): Linear(in_features=512, out_features=512, bias=False)
            )
            (mlp): MLP(
              (mlp_layers): Sequential(
                (0): Linear(in_features=512, out_features=512, bias=True)
                (1): GELU()
                (2): Dropout(p=0.1, inplace=False)
                (3): Linear(in_features=512, out_features=512, bias=True)
                (4): Dropout(p=0.1, inplace=False)
              )
            )
            (layer_norm1): LayerNorm((512,), eps=1e-05, elementwise_affine=True)
            (layer_norm2): LayerNorm((512,), eps=1e-05, elementwise_affine=True)
            (dropout): Dropout(p=0.1, inplace=False)
          )
          (3): TransformerEncoderBlock(
            (multi_head_attention): MultiHeadAttention(
              (qkv_layer): Linear(in_features=512, out_features=1536, bias=False)
              (out_attention): Linear(in_features=512, out_features=512, bias=False)
            )
            (mlp): MLP(
              (mlp_layers): Sequential(
                (0): Linear(in_features=512, out_features=512, bias=True)
                (1): GELU()
                (2): Dropout(p=0.1, inplace=False)
                (3): Linear(in_features=512, out_features=512, bias=True)
                (4): Dropout(p=0.1, inplace=False)
              )
            )
            (layer_norm1): LayerNorm((512,), eps=1e-05, elementwise_affine=True)
            (layer_norm2): LayerNorm((512,), eps=1e-05, elementwise_affine=True)
            (dropout): Dropout(p=0.1, inplace=False)
          )
          (4): TransformerEncoderBlock(
            (multi_head_attention): MultiHeadAttention(
              (qkv_layer): Linear(in_features=512, out_features=1536, bias=False)
              (out_attention): Linear(in_features=512, out_features=512, bias=False)
            )
            (mlp): MLP(
              (mlp_layers): Sequential(
                (0): Linear(in_features=512, out_features=512, bias=True)
                (1): GELU()
                (2): Dropout(p=0.1, inplace=False)
                (3): Linear(in_features=512, out_features=512, bias=True)
                (4): Dropout(p=0.1, inplace=False)
              )
            )
            (layer_norm1): LayerNorm((512,), eps=1e-05, elementwise_affine=True)
            (layer_norm2): LayerNorm((512,), eps=1e-05, elementwise_affine=True)
            (dropout): Dropout(p=0.1, inplace=False)
          )
          (5): TransformerEncoderBlock(
            (multi_head_attention): MultiHeadAttention(
              (qkv_layer): Linear(in_features=512, out_features=1536, bias=False)
              (out_attention): Linear(in_features=512, out_features=512, bias=False)
            )
            (mlp): MLP(
              (mlp_layers): Sequential(
                (0): Linear(in_features=512, out_features=512, bias=True)
                (1): GELU()
                (2): Dropout(p=0.1, inplace=False)
                (3): Linear(in_features=512, out_features=512, bias=True)
                (4): Dropout(p=0.1, inplace=False)
              )
            )
            (layer_norm1): LayerNorm((512,), eps=1e-05, elementwise_affine=True)
            (layer_norm2): LayerNorm((512,), eps=1e-05, elementwise_affine=True)
            (dropout): Dropout(p=0.1, inplace=False)
          )
          (6): TransformerEncoderBlock(
            (multi_head_attention): MultiHeadAttention(
              (qkv_layer): Linear(in_features=512, out_features=1536, bias=False)
              (out_attention): Linear(in_features=512, out_features=512, bias=False)
            )
            (mlp): MLP(
              (mlp_layers): Sequential(
                (0): Linear(in_features=512, out_features=512, bias=True)
                (1): GELU()
                (2): Dropout(p=0.1, inplace=False)
                (3): Linear(in_features=512, out_features=512, bias=True)
                (4): Dropout(p=0.1, inplace=False)
              )
            )
            (layer_norm1): LayerNorm((512,), eps=1e-05, elementwise_affine=True)
            (layer_norm2): LayerNorm((512,), eps=1e-05, elementwise_affine=True)
            (dropout): Dropout(p=0.1, inplace=False)
          )
          (7): TransformerEncoderBlock(
            (multi_head_attention): MultiHeadAttention(
              (qkv_layer): Linear(in_features=512, out_features=1536, bias=False)
              (out_attention): Linear(in_features=512, out_features=512, bias=False)
            )
            (mlp): MLP(
              (mlp_layers): Sequential(
                (0): Linear(in_features=512, out_features=512, bias=True)
                (1): GELU()
                (2): Dropout(p=0.1, inplace=False)
                (3): Linear(in_features=512, out_features=512, bias=True)
                (4): Dropout(p=0.1, inplace=False)
              )
            )
            (layer_norm1): LayerNorm((512,), eps=1e-05, elementwise_affine=True)
            (layer_norm2): LayerNorm((512,), eps=1e-05, elementwise_affine=True)
            (dropout): Dropout(p=0.1, inplace=False)
          )
        )
      )
    )
    (conv2): Conv2d(512, 512, kernel_size=(3, 3), stride=(1, 1), padding=(1, 1))
    (norm2): BatchNorm2d(512, eps=1e-05, momentum=0.1, affine=True, track_running_stats=True)
  )
  (decoder): Decoder(
    (decoder1): DecoderBottleneck(
      (upsample): Upsample(scale_factor=2.0, mode=bilinear)
      (layer): Sequential(
        (0): Conv2d(768, 192, kernel_size=(3, 3), stride=(1, 1), padding=(1, 1))
        (1): BatchNorm2d(192, eps=1e-05, momentum=0.1, affine=True, track_running_stats=True)
        (2): ReLU(inplace=True)
        (3): Conv2d(192, 192, kernel_size=(3, 3), stride=(1, 1), padding=(1, 1))
        (4): BatchNorm2d(192, eps=1e-05, momentum=0.1, affine=True, track_running_stats=True)
        (5): ReLU(inplace=True)
      )
    )
    (decoder2): DecoderBottleneck(
      (upsample): Upsample(scale_factor=2.0, mode=bilinear)
      (layer): Sequential(
        (0): Conv2d(320, 96, kernel_size=(3, 3), stride=(1, 1), padding=(1, 1))
        (1): BatchNorm2d(96, eps=1e-05, momentum=0.1, affine=True, track_running_stats=True)
        (2): ReLU(inplace=True)
        (3): Conv2d(96, 96, kernel_size=(3, 3), stride=(1, 1), padding=(1, 1))
        (4): BatchNorm2d(96, eps=1e-05, momentum=0.1, affine=True, track_running_stats=True)
        (5): ReLU(inplace=True)
      )
    )
    (decoder3): DecoderBottleneck(
      (upsample): Upsample(scale_factor=2.0, mode=bilinear)
      (layer): Sequential(
        (0): Conv2d(160, 48, kernel_size=(3, 3), stride=(1, 1), padding=(1, 1))
        (1): BatchNorm2d(48, eps=1e-05, momentum=0.1, affine=True, track_running_stats=True)
        (2): ReLU(inplace=True)
        (3): Conv2d(48, 48, kernel_size=(3, 3), stride=(1, 1), padding=(1, 1))
        (4): BatchNorm2d(48, eps=1e-05, momentum=0.1, affine=True, track_running_stats=True)
        (5): ReLU(inplace=True)
      )
    )
    (decoder4): DecoderBottleneck(
      (upsample): Upsample(scale_factor=2.0, mode=bilinear)
      (layer): Sequential(
        (0): Conv2d(48, 12, kernel_size=(3, 3), stride=(1, 1), padding=(1, 1))
        (1): BatchNorm2d(12, eps=1e-05, momentum=0.1, affine=True, track_running_stats=True)
        (2): ReLU(inplace=True)
        (3): Conv2d(12, 12, kernel_size=(3, 3), stride=(1, 1), padding=(1, 1))
        (4): BatchNorm2d(12, eps=1e-05, momentum=0.1, affine=True, track_running_stats=True)
        (5): ReLU(inplace=True)
      )
    )
    (conv1): Conv2d(12, 3, kernel_size=(1, 1), stride=(1, 1))
  )
)
dataset: mydata(training=5342, validation=1278)
batch_size: 8
batch_num: 668
epoch: 30
loss_function: LovaszLoss()
optimizer: Adam (
Parameter Group 0
    amsgrad: False
    betas: (0.9, 0.999)
    eps: 1e-08
    lr: 0.001
    maximize: False
    weight_decay: 0
)
tensorboard_log_path: H:\USSeg\trainingrecords\log\mydata_transunet_Lovasz
<================================================>
…
